…
  step_per_epoch: 2000
  validation_steps: 800
  epochs: 2
  batch_size: 32
image:
  size: 160
test:
  dir: data/eval
/home/bhuwan/Desktop/cat-dog
path for training --/home/bhuwan/Desktop/cat-dog/data/dataset/train
path for valid--/home/bhuwan/Desktop/cat-dog/data/dataset/val
(160, 160)
Found 2000 files belonging to 2 classes.
Found 2000 files belonging to 2 classes.
Model: "sequential_1"
_________________________________________________________________
Layer (type)                 Output Shape              Param #
=================================================================
sequential (Sequential)      (None, 160, 160, 3)       0
_________________________________________________________________
rescaling (Rescaling)        (None, 160, 160, 3)       0
_________________________________________________________________
conv2d (Conv2D)              (None, 160, 160, 16)      448
_________________________________________________________________
max_pooling2d (MaxPooling2D) (None, 80, 80, 16)        0
_________________________________________________________________
conv2d_1 (Conv2D)            (None, 80, 80, 32)        4640
_________________________________________________________________
max_pooling2d_1 (MaxPooling2 (None, 40, 40, 32)        0
_________________________________________________________________
conv2d_2 (Conv2D)            (None, 40, 40, 64)        18496
_________________________________________________________________
max_pooling2d_2 (MaxPooling2 (None, 20, 20, 64)        0
_________________________________________________________________
dropout (Dropout)            (None, 20, 20, 64)        0
_________________________________________________________________
flatten (Flatten)            (None, 25600)             0
_________________________________________________________________
dense (Dense)                (None, 128)               3276928
_________________________________________________________________
dense_1 (Dense)              (None, 1)                 129
=================================================================
Total params: 3,300,641
Trainable params: 3,300,641
Non-trainable params: 0
_________________________________________________________________
None
2021-10-01 10:01:06.126241: I tensorflow/compiler/mlir/mlir_graph_optimization_pass.cc:185] None of the MLIR Optimization Passes are enabled (registered 2)
[2021-10-01 10:01:04,722][numexpr.utils][INFO] - Note: NumExpr detected 16 cores but "NUMEXPR_MAX_THREADS" not set, so enforcing safe limit of 8.
…
